assets/smart_gloves_model.tflite (tflite, 179444 bytes, 8 tensors)

arith.constant f4 [23, 64]
000000 02 f6 ba 3d cd cf a1 bd aa 4f 6c 3d 5b 83 53 bd
       0.091289535 -0.07900963 0.05769316 -0.051638942
000010 be cf de bd 3c 28 b1 3d a1 04 eb 3d 44 7a 56 3d
       -0.108794674 0.08650252 0.11475492 0.052362695
000020 3c 16 62 bd a8 fe 26 be 94 7b b2 3d 52 f6 91 3d
       -0.055196986 -0.16308081 0.08714977 0.0712706
000030 c5 84 87 bc e7 7c 8f bd c2 d4 bd 3d 4f ce 20 be
       -0.016542802 -0.07006245 0.09269096 -0.157037
000040 d9 11 ec 3d 5a 80 d2 bd dc 2b b2 bd 8b eb d9 bd
       0.11526842 -0.10278387 -0.08699772 -0.106406294
000050 2f d9 bc bd e8 53 46 bd ce 7e c6 3d f4 c5 27 3e
       -0.09221112 -0.048419863 0.09692155 0.16384107
000060 aa e1 11 3d 7f 77 be 3d 29 ea 37 bc 3c 99 8e 3d
       0.0356156 0.09300136 -0.011225262 0.06962821
000070 c6 a5 35 be 43 fb 2b 3e d3 7d 86 be e3 c5 67 be
       -0.17739019 0.16795067 -0.2626787 -0.22634082
000080 68 79 89 bd e1 ae 31 bd 90 d8 c6 3d 15 58 e1 bd
       -0.067126095 -0.04337967 0.09709275 -0.110031284
000090 95 3b 60 be 1f 73 35 3e bf df 06 be c2 78 1e 3d
       -0.21897729 0.17719696 -0.1317129 0.038689382
0000a0 49 24 3a be 5b 56 1f be ea 54 2b 3e cf ee 23 bd
       -0.18177904 -0.15560286 0.16731611 -0.040022667
0000b0 8f 93 12 3d 4a b9 65 be 96 3d 8f 3d a1 fc 23 3d
       0.035785254 -0.22433963 0.069941685 0.040035848
0000c0 10 8e 2a be 15 1a 9d bd a7 63 84 3d d9 80 87 bd
       -0.16655755 -0.076709904 0.0646432 -0.066163726
0000d0 e2 cd 68 3b 03 49 31 be e0 45 43 bd 59 4c a7 3d
       0.0035523106 -0.17313008 -0.04767406 0.08168859
0000e0 e3 02 48 be 12 bb b3 3d 06 2e 26 be 25 96 d9 3b
       -0.19532351 0.08775915 -0.16228494 0.006640213
0000f0 0b c2 12 3e 58 35 17 3e 7e c0 25 3e 75 47 1c 3e
       0.14331834 0.14766443 0.16186711 0.15261634
000100 f4 2d 76 bd f8 b2 04 3e 69 ed f5 bd b1 8a 85 bd
       -0.060102418 0.12958896 -0.12008173 -0.06520594
000110 c1 e3 ca 3d 4a 7c 95 3c a7 27 a9 bd 5d 9c 82 3d
       0.09906722 0.018247742 -0.08259516 0.0637748
000120 66 68 b2 bd 64 4b 8a 3d 94 bb 46 3d 61 f4 93 bc
       -0.08711319 0.06752661 0.048518732 -0.018060865
000130 a0 dd 31 3e 1a 1d 3c be f7 0a 2c be 67 8c df 3d
       0.173697 -0.18370476 -0.16801058 0.109154515
000140 94 e1 1c be 97 d8 84 3d 64 16 c3 3c f3 f4 26 3e
       -0.15320426 0.06486624 0.023814388 0.16304378
000150 68 64 27 be 1e 7e 1b 3e e4 0b da 3d bc 01 2e be
       -0.16346896 0.15184829 0.10646799 -0.16992849
000160 4e 64 3e bd 90 21 39 bd 72 b6 89 be 62 02 bd bd
       -0.046482377 -0.045198023 -0.26897007 -0.0922897
000170 64 68 74 3c 6c e2 eb 3d 1c d6 3b be 6c 98 4f bc
       0.014917467 0.11517796 -0.18343395 -0.012670618
000180 51 84 1a 3e 7c 5b e2 3c c6 d4 02 be a3 ba f3 bc
       0.15089537 0.027631514 -0.12776479 -0.029752081
000190 a7 7b c1 bd a6 60 13 3d 78 a6 4c be 2b 51 3b 3e
       -0.09447413 0.035980843 -0.19985378 0.18292682
0001a0 2e 91 50 3d cb 47 d8 bd bc 96 16 3e 4e 5f c7 bd
       0.050919704 -0.105605684 0.14705938 -0.09734975
0001b0 71 34 d0 3d 00 24 5a be 15 ae 98 be c0 1a 74 be
       0.101662524 -0.21302795 -0.29820314 -0.2383833
0001c0 e8 a9 18 be 53 e5 d1 bd c1 14 14 be b5 07 0e be
       -0.14908564 -0.10248818 -0.14461042 -0.13870127
0001d0 62 87 03 3e fb 21 4f be 83 3f 1c be 8a 60 f4 3d
       0.12844613 -0.20227806 -0.15258603 0.11932476
0001e0 0f 97 0f 3e 1c d1 45 3d 05 42 cb bd b9 58 94 3d
       0.14022468 0.048295125 -0.099247016 0.07243485
0001f0 7d 1e 1e 3e 7a 61 8a bd 30 6a 2a 3e 81 63 6c bd
       0.15441318 -0.067568734 0.1664207 -0.05771208
000200 45 a2 25 3d 0a 7d 92 bd 7c f9 0e 3e db 9e 7f bd
       0.040437955 -0.071527556 0.13962358 -0.062407356
000210 50 37 22 3e 88 37 48 be 79 9f ea bb 05 cc cb bd
       0.15841413 -0.19552433 -0.007160124 -0.09951023
000220 b2 4e ad bc 8e f7 bb 3d b3 67 70 bd e2 74 97 3d
       -0.021155689 0.09178077 -0.058692645 0.073953405
000230 08 47 00 3e 19 83 02 3e 49 d9 82 bd 01 e0 a9 3d
       0.12527096 0.12745322 -0.063891 0.082946785
000240 41 b4 c1 3d 61 c6 34 be b4 2f e2 bc 18 52 96 3d
       0.09458209 -0.176538 -0.027610637 0.07339877
000250 29 5c 13 be a2 19 8f 3d ac 01 92 bd db 05 00 3e
       -0.14390625 0.06987311 -0.07129225 0.12502234
000260 ad a6 4d 3d 3b fe 5c 3d d4 de 92 be b3 0a 21 be
       0.050207783 0.05395339 -0.2868563 -0.15726738
000270 92 7e 3d bd cf 1d 6a 3d 21 7d 6e be 9f 05 87 be
       -0.046263285 0.057157334 -0.2328992 -0.26371476
000280 81 a3 08 bd 16 30 4d be 37 20 f6 3c fe 9f 46 3e
       -0.033359054 -0.20037875 0.030044658 0.1939697
000290 df 2f e4 bd a6 e4 8c 3d 82 9a 58 be 1c 6b ee bd
       -0.11141943 0.06879549 -0.2115269 -0.11641523
0002a0 3d 42 80 3c 35 af a9 bd b8 92 88 bd c2 bc 98 3d
       0.015656585 -0.08285371 -0.066686094 0.07457878
0002b0 e9 09 b7 bc e4 ab 71 be 7f 68 28 bb 14 84 84 be
       -0.022343593 -0.23600727 -0.002569705 -0.25882018
0002c0 6c c0 05 3e cc 0f 59 bc f8 f9 ee 3d 25 d8 ba 3d
       0.13061684 -0.013248395 0.116687715 0.091232575
0002d0 72 02 f1 3d 07 65 27 3d 10 02 16 3e 8d 5c 1b 3e
       0.117680445 0.04086783 0.14649224 0.15172024
0002e0 5e 03 fa 3d d7 d5 82 3d 76 6b 8a 3d 46 b6 01 3d
       0.122076735 0.06388443 0.06758778 0.03166797
0002f0 d0 79 b9 3c d7 c8 06 3a dc 46 11 3e 10 1a 39 be
       0.022641093 0.0005141622 0.14187187 -0.18076348
000300 49 aa 99 3b c2 05 4b bd 73 88 b8 3d 55 4f 38 be
       0.004689489 -0.049566038 0.090104006 -0.17999013
000310 9e 1b 80 bd 41 db 49 bd d0 96 75 3d a0 56 ce 3d
       -0.062552676 -0.049281362 0.05995828 0.10075116
000320 65 be af bd e2 7e 88 3d 20 7b a0 bd f0 57 85 3d
       -0.08581237 0.06664826 -0.07835984 0.06510913
000330 46 80 ab 3d 38 ff 9e bd bf df 0d bd 29 21 9c bd
       0.083740756 -0.07763523 -0.03463721 -0.07623512
000340 e1 e3 e5 3c eb f8 d3 bb a2 ce 84 3d 96 19 d7 bc
       0.028062763 -0.0064688823 0.064847246 -0.026257318
000350 ce b9 fe bd db f1 f1 bd 8a 50 96 bc 00 e8 54 bc
       -0.12437783 -0.118137084 -0.01834895 -0.012994766
000360 9e f2 23 be b4 1d c5 3d 31 f5 59 bd 89 ea 27 be
       -0.1601052 0.09624806 -0.05321235 -0.16398062
000370 ea 12 ac 3c 0d aa b4 bd 4c 09 34 3d f7 26 02 be
       0.021005113 -0.08821497 0.04395418 -0.12710176
000380 49 7b 9f bd ea 72 0e be cf 61 1c be cf 51 54 3e
       -0.07787187 -0.13911024 -0.15271686 0.20734333
000390 e7 d0 d4 3d 72 cb c7 3d 13 38 18 be 41 a3 81 bd
       0.103914075 0.09755601 -0.1486514 -0.06329966
0003a0 2a 01 02 be f6 6b 78 3d 78 39 8c bd 9f fa 0b 3d
       -0.12695757 0.060649835 -0.06846899 0.034174558
0003b0 2d 4e a2 3d 84 16 63 3d 77 93 d5 bd 11 55 16 3b
       0.07925067 0.055441394 -0.10428517 0.0022938887
0003c0 66 ea 10 be 4f a4 0b be a5 4c e5 bd 3b 8d 78 bd
       -0.14151916 -0.13636898 -0.111962594 -0.060681563
0003d0 35 e3 b4 3d 27 9f 95 3d eb b0 b0 bd 1a 77 8c bd
       0.08832399 0.073057465 -0.086274944 -0.06858654
0003e0 3c 41 bd bd dd a6 fe bd 75 d9 8d 3d b5 b8 2c be
       -0.09240958 -0.124341704 0.06926242 -0.16867335
0003f0 f3 90 e4 bd f8 6d 9e 3d 2d d9 08 3d 13 14 c3 3d
       -0.11160459 0.077358186 0.03341024 0.09525313

arith.constant1 f4 [23]
000000 2c 0a ed bd b9 de 34 3f 00 a7 f0 bf 82 64 a5 40
       -0.11574206 0.7065235 -1.8800964 5.168519
000010 cb bf 0c 40 09 0b 5d 3f 0e 04 15 40 ca 21 37 3f
       2.199206 0.86344963 2.3283725 0.71535933
000020 a1 f2 fe 3f c5 51 45 40 2c e2 23 40 34 15 87 3f
       1.9917794 3.0831158 2.5606794 1.0553346
000030 b1 73 02 40 28 de 85 40 d5 20 63 3e 25 db 78 40
       2.0383112 4.1833687 0.22180493 3.8883755
000040 c9 aa 25 3f 3c 3c 80 40 5c 12 94 40 4e 98 6b be
       0.6471372 4.007353 4.627241 -0.23007318
000050 17 82 18 40 12 4d 24 40 a5 bd 18 40
       2.38294 2.567204 2.386575

arith.constant2 f4 [64, 128]
000000 85 53 24 be fa fb 13 3d 03 0b 5a bd f4 12 f4 3d
       -0.16047485 0.036128975 -0.053233158 0.119176775
000010 89 f7 bb 3d 66 d7 7e 3c dc 56 1e be d1 cc b0 3a
       0.09178073 0.015554285 -0.15462822 0.0013488774
000020 4d ed f2 3d 0d 93 9d bd 94 9b e5 bd 3d 3f 68 3e
       0.11861668 -0.07694063 -0.11211315 0.22680373
000030 76 e6 05 3e 63 21 a3 3c e0 2c 3c 3e a2 f8 16 be
       0.13076195 0.019913381 0.18376493 -0.14743283
000040 f8 d4 c6 3d 1c d0 b1 bd f0 a6 89 bd ad 07 8b 3d
       0.09708589 -0.08682272 -0.06721294 0.067885734
000050 44 dd 49 3e cc 97 e2 bd 89 c2 1d bc a0 94 f3 bd
       0.19713312 -0.11064109 -0.0096289 -0.11893582
000060 bb 4e b6 3d 58 43 a2 3b 97 81 18 bd 8f e2 b6 bd
       0.089017354 0.0049518757 -0.03723296 -0.08929931
000070 53 57 51 3d 53 85 c6 3d 45 9f 88 be 48 a1 da 3d
       0.05110867 0.09693398 -0.26684013 0.10675293
000080 ff c9 08 3d 5c 5d 06 be f2 aa e8 bd 75 69 bb 3d
       0.033395763 -0.13121551 -0.1136073 0.09150974
000090 0a 93 fb 3c f8 8f 70 be 4a 73 06 be e0 4c d6 bd
       0.030709762 -0.2349242 -0.13129917 -0.104638815
0000a0 d2 05 10 bd 88 31 02 bc aa 67 a2 bb f6 0d bf 3d
       -0.0351618 -0.0079463795 -0.0049562054 0.09328835
0000b0 06 f8 a6 3c 51 0d 13 3d df b0 6f be b9 c9 95 3e
       0.020381939 0.03590137 -0.23407315 0.29255465
0000c0 31 2e 1d 3d ac 49 0d 3e 1e 43 df bd 5b f4 80 3d
       0.03837413 0.13797635 -0.109014735 0.06296607
0000d0 ed ac 27 bb f6 88 1e 3c 63 93 6e 3c 76 20 02 bd
       -0.002558525 0.009676209 0.014561507 -0.03176924
0000e0 8d ad 5d ba e1 64 94 3d 25 91 8c 3b d4 b4 42 bd
       -0.0008456342 0.072458036 0.0042897635 -0.047535732
0000f0 a1 03 37 3e 06 8b 63 bd bf fc 72 3e ae 4d 5f 3d
       0.17872478 -0.055552505 0.23729227 0.05451744
000100 80 0c 4e be 84 d6 df 3b e0 f6 38 be a5 60 a6 bc
       -0.20121956 0.006830992 -0.18062925 -0.020309756
000110 ae c5 c2 3b 86 32 89 bb c1 d6 a3 bd 8e 33 ef 3c
       0.0059439754 -0.004186931 -0.079999454 0.029199388
000120 dd 6d c7 3d c3 78 d6 3d 6d 83 52 bd cf e5 85 3d
       0.09737752 0.10472252 -0.05139487 0.06537973
000130 d5 3e 51 3c 1e 1c 4d 3d d1 06 8e bd 83 50 9b bd
       0.012771328 0.050075643 -0.06934894 -0.07583716
000140 e4 d2 ce 3d e3 b9 b0 ba 5f 48 73 bb 89 9a 40 bd
       0.10098818 -0.0013483133 -0.0037121994 -0.047022376
000150 64 dc 79 3d 20 80 74 bd 93 33 6c 3a ee e7 36 3e
       0.061001197 -0.059692502 0.00090103707 0.17861912
000160 85 63 68 3e 5b a6 60 3c 3a 07 b7 3d 3c 9a 0b 3d
       0.22694214 0.013711537 0.08936925 0.034082636
000170 dd f6 c0 bd 39 8b 90 3d d3 6b 25 3e 62 52 4d 3d
       -0.094220854 0.070578046 0.16154413 0.050127394
000180 71 70 9d bd d0 cf 32 3e ca 2e ac 3c 74 82 3f 3d
       -0.07687462 0.17462087 0.021018405 0.04675527
000190 ae a2 57 3d 8e 81 1c be 95 2f 1c 3c aa ae 12 3d
       0.052645378 -0.15283796 0.009532829 0.035811104
0001a0 02 0a 0c bd b4 2f 98 3d c3 75 7a 3e b3 a9 b0 3d
       -0.03418923 0.07430974 0.24458985 0.086261176
0001b0 73 6a b9 3d 2e c9 ae 3a 05 ed c6 3c 15 e4 9f bd
       0.09053507 0.0013335103 0.024282942 -0.07807175
0001c0 31 c8 85 3c d0 f3 c0 3c 3d d3 84 bc 47 99 15 bd
       0.01633081 0.023553759 -0.016214008 -0.03652313
0001d0 4b 91 78 3d 1d 73 df bc f0 69 13 bd 2e a4 3f bc
       0.060685437 -0.02727657 -0.0359897 -0.011696858
0001e0 22 5f 06 be 99 ff eb bd a8 ef a3 3d 33 4d ef 3b
       -0.13122228 -0.11523361 0.08004695 0.007302904
0001f0 22 76 b7 3d e7 ec 89 3d 62 de 5a bd fd 99 a0 bd
       0.08958079 0.06734639 -0.053434737 -0.07841871
000200 7a a0 38 bd 51 d5 1a 3e 9d 5b 28 bc 96 38 19 3e
       -0.045074917 0.15120436 -0.010275749 0.14962992
000210 6f 59 98 3d e1 18 af 3d 2c a0 83 3d 73 d2 d4 3e
       0.07438933 0.08549667 0.06427035 0.4156681
000220 e0 b3 b1 bc a7 22 b6 bd 0d 1d 88 bc 79 bf b3 bd
       -0.021692216 -0.08893328 -0.016615415 -0.08776755
000230 06 cd f9 3c 7f a5 9c bc b7 79 cc bd 5e 5f 88 3d
       0.03049327 -0.019121883 -0.09984153 0.06658815
000240 f3 32 f6 bc ea 6d 3d 3d 3b 04 bd bc d8 7f 8d be
       -0.030053591 0.0462474 -0.023073306 -0.276366
000250 82 80 e4 3d 06 57 2f 3e 6e 32 0a 3c 8d b6 d9 bd
       0.111573234 0.1712304 0.008434875 -0.10630522
000260 bd a2 d7 bd 2e 04 1e be bb 8c 25 3e 5c b1 71 bd
       -0.10529087 -0.15431282 0.16166966 -0.059007034
000270 8d 83 e8 bc 64 51 31 be 9e cd cf 3d 55 77 df bd
       -0.02838304 -0.17316204 0.1014664 -0.10911433
000280 c5 ee d2 3c ab e7 0d be df d1 30 3e 3b 66 9b 3c
       0.02574862 -0.13857906 0.1726756 0.018969646
000290 44 ae 26 3e d7 37 a3 3e 34 62 e1 3d 34 e5 1d 3a
       0.16277415 0.3187854 0.11005059 0.00060232286
0002a0 cb d0 6b bd 7b 28 06 be 7f 3c e1 bc 38 8f 22 be
       -0.057572167 -0.1310138 -0.027494667 -0.15874946
0002b0 d8 e7 a5 bc 02 08 ad 3d 52 91 05 3d 09 f0 7d be
       -0.020252153 0.08448793 0.03260929 -0.24798597
0002c0 50 41 93 bd fc 1e 91 3d 77 97 c2 3d 75 4e 6a bd
       -0.07190192 0.07085988 0.09501546 -0.05720373
0002d0 0f 19 d8 bc 8a e6 c2 3c 2f 2d 6a 3c 83 98 b4 3c
       -0.026379136 0.02379157 0.014292999 0.02204538
0002e0 16 39 cb bd b5 7a 18 3e df 0f bb bd 2d 7c 10 3d
       -0.09922998 0.14890559 -0.091338865 0.035274673
0002f0 56 10 8c bd f4 4d 87 3d 36 bc a4 3d 67 86 3e 3d
       -0.06839053 0.06606665 0.08043711 0.046514895
000300 42 74 61 bd 97 b6 e6 bc 3f 7b 9c 3d f4 e0 85 bd
       -0.055042513 -0.028163237 0.07640695 -0.06537047
000310 ae cc 6a 3d 49 a5 67 3d 5d 74 f4 bc 39 75 9c 3c
       0.057324104 0.056554113 -0.029840643 0.019098865
000320 5b a6 3a be 1c 87 99 bc bc f2 37 be 91 e3 80 bd
       -0.18227522 -0.018741183 -0.1796369 -0.06293405
000330 1f 70 b6 3d df fe 7d ba ca cf fd 3c 34 4f 0a 3e
       0.08908104 -0.0009689163 0.03098287 0.13506776
000340 5f 38 90 bd f2 f7 d6 bd 8e f6 df 3c af 2e b1 bd
       -0.07042002 -0.104965106 0.027339246 -0.08651482
000350 1e 4e 10 bd 8c 7b e7 3d dd c5 08 3d fe 52 b1 bc
       -0.03523075 0.113028616 0.033391822 -0.02164602
000360 82 f1 4d bc 95 01 05 bd f7 28 14 bd f7 25 69 bd
       -0.012569787 -0.032472212 -0.03617188 -0.05692097
000370 e8 4b 00 bd ba 7d 53 3d 28 1c c6 3d d4 b4 0e 3e
       -0.03132239 0.051633574 0.09673339 0.13936168
000380 32 6d ad 3c 78 6e 4e bd 5d 71 37 3e 04 e5 40 3e
       0.021170232 -0.05039832 0.17914338 0.18837363
000390 02 03 41 bd 19 73 e4 3d 40 f1 b5 bc 89 13 fb bc
       -0.04712201 0.11154766 -0.022209764 -0.030648964
0003a0 1e 89 d7 3c e3 3a 5e 3d 31 b8 ae bc f0 d1 0e bd
       0.0263105 0.054255378 -0.021328064 -0.03486818
0003b0 8d 19 df 3d 58 cc 6e 3c 8b a2 5a be dc 41 20 3d
       0.10893545 0.0145750865 -0.21351068 0.03912531
0003c0 f3 d7 23 bd 7a 99 f1 bc ba a1 ed bc 68 14 b9 3c
       -0.040000867 -0.029492129 -0.029007781 0.022592738
0003d0 8f de 40 3c ac d3 a5 3d e6 a8 e1 3d 26 2e 5e bc
       0.011771812 0.08097014 0.11018543 -0.013560807
0003e0 f3 3b b6 3d 98 20 9d bd 20 6c 62 be b9 8d 0a bc
       0.08898153 -0.076722324 -0.22111559 -0.008456641
0003f0 09 c3 4f 3c 9b f3 d8 bd b5 d9 a1 3c f9 6b 75 3e
       0.012680777 -0.10593339 0.019757131 0.2396697

arith.constant3 f4 [64]
000000 ba e2 79 be c7 37 73 3f 95 ad 81 3e c1 f2 42 c0
       -0.24402896 0.95006984 0.25327745 -3.0460665
000010 fa 06 3e 40 4e 66 27 40 6f fd 85 40 69 07 7f 40
       2.9691758 2.6156192 4.1871867 3.9848273
000020 7a b6 21 bf 5d ab a7 3e d6 6c 44 40 dd 75 00 40
       -0.6316906 0.32747927 3.0691428 2.0071938
000030 14 c7 a6 40 a8 31 2c c0 ef c9 ab 40 07 d9 bd 40
       5.2118015 -2.6905308 5.3684 5.9327426
000040 c6 c6 63 40 79 c4 22 40 cb 02 61 40 35 21 7a 40
       3.5590072 2.5432417 3.5157955 3.9082768
000050 58 53 a6 40 20 c8 8f c0 4d 39 10 c0 f0 fa 07 3f
       5.197674 -4.4931793 -2.2534974 0.53117275
000060 0c 7d 8b 40 99 66 08 40 09 01 6f 3e 11 13 60 3f
       4.3590145 2.131262 0.23340239 0.87529093
000070 f0 bc 90 c0 97 c1 cb 40 9e 2b 05 40 2d 19 ae c0
       -4.5230637 6.3673816 2.0807872 -5.440573
000080 46 69 3c 40 2d 35 b7 be 72 4e 69 40 7d be 01 40
       2.9439254 -0.35782757 3.645413 2.0272515
000090 6c 09 41 bf 92 b3 fd 40 59 d2 53 3f 02 72 b3 40
       -0.75405 7.92817 0.8274284 5.607667
0000a0 6a a9 19 40 d6 7d bf 40 03 84 fe 40 d1 52 a5 be
       2.4009652 5.984111 7.9536147 -0.32289746
0000b0 92 60 98 bf ad 70 5a 3f d2 fe 03 40 79 ba ea bf
       -1.1904471 0.8532818 2.062428 -1.8338157
0000c0 1b 1d 13 40 c8 13 c5 40 a3 2b a8 3f 95 eb 55 40
       2.2986515 6.1586647 1.3138317 3.3425038
0000d0 63 8c 09 3e 04 6f ca be 5a 10 9a 40 af 8b 84 40
       0.1343246 -0.39537823 4.814496 4.142051
0000e0 65 0f 6f 40 10 07 99 40 d5 f6 d8 3f 02 2d 03 40
       3.7353146 4.782112 1.6950327 2.049622
0000f0 7c 14 9b 40 75 de a2 40 6b d4 35 40 71 ed 85 40
       4.8462505 5.0896554 2.84109 4.1852345

arith.constant4 f4 [128, 256]
000000 73 0d 4a 3e f7 7f dd 3f b3 e8 cd 3f 49 94 51 3f
       0.19731693 1.7304677 1.6086639 0.8186689
000010 f1 3b 76 40 c4 da c8 bf de 2a 0b 41 85 67 5b bf
       3.8474085 -1.5691762 8.697966 -0.85704833
000020 8e 63 4b 3f 72 a1 f5 3f 89 f5 a0 bf db 88 1d 40
       0.79448783 1.9189894 -1.2574931 2.461478
000030 21 5c 15 c0 d5 4d be c0 06 78 74 bf f5 be 11 c2
       -2.333748 -5.947001 -0.9549564 -36.43648
000040 ef b2 cb be 31 f5 b6 c0 d4 02 e7 bf 6f d7 e6 3f
       -0.39784953 -5.7174306 -1.8047738 1.8034495
000050 d7 23 65 3e 13 8f 5f be da 5f 95 c1 48 52 75 3f
       0.22376953 -0.21831922 -18.671803 0.95828676
000060 b3 f0 14 c0 40 ea 11 41 77 6a a7 c1 e1 75 2a bf
       -2.327191 9.11969 -20.926985 -0.6658612
000070 2f 9d ee be 35 88 e2 c0 3b 5e 27 3f 06 6e 2e c0
       -0.46604297 -7.079127 0.6537816 -2.7254653
000080 a9 a6 0e bf e4 fc 6f 3f 05 89 f9 c0 31 d3 ef 3f
       -0.55723053 0.93745255 -7.797976 1.8736326
000090 d2 6c 23 c0 8e 60 8b 40 c5 64 38 bf 63 d3 be c0
       -2.5535169 4.3555365 -0.7202876 -5.963304
0000a0 78 03 d8 bf 0e df d6 c0 a1 9f e8 bf db 2f 6c be
       -1.6876059 -6.7147284 -1.8173715 -0.2306513
0000b0 c4 5d 73 c0 39 cd 3d 3e 90 58 cd c0 d2 ed a2 3d
       -3.802598 0.18535317 -6.417061 0.07955517
0000c0 b2 7f f6 3e d0 d6 54 c0 2e 81 97 40 9a b9 83 3f
       0.481443 -3.325611 4.734519 1.0291016
0000d0 70 b7 b0 3f 44 b3 60 bf 1f 4e 95 3e f7 3e 97 3f
       1.3805981 -0.8777354 0.29161164 1.181609
0000e0 ad 56 12 c2 21 96 a0 bf 3b fe 2d be 4e 45 3c 3f
       -36.584644 -1.2545816 -0.16991512 0.7354325
0000f0 aa 84 56 c0 f4 16 85 40 cf e8 09 40 81 f8 3e 3e
       -3.3518472 4.159052 2.1548345 0.18649484
000100 fb e4 4b 40 26 fa e9 c0 b5 77 8c c0 39 5b 21 40
       3.1858509 -7.3117857 -4.3896127 2.5211928
000110 1f df 84 3f 87 4a 7f c0 35 26 5f 3f f7 16 f6 40
       1.0380591 -3.9889238 0.87167674 7.6903033
000120 b5 a3 ed bf 92 ec c0 bf 31 53 cd be 7d 76 9c 3f
       -1.8565584 -1.5072196 -0.40102533 1.222366
000130 6b 2a 9f bf 55 e2 93 3f a6 9b 69 3e df d6 7f 40
       -1.243482 1.1553446 0.22813281 3.9974897
000140 7e b1 36 bd f3 27 67 be 13 b3 43 bf 53 7b 47 40
       -0.044602863 -0.22573833 -0.7644512 3.116902
000150 8a b0 ad c0 18 49 18 bf eb 94 81 3f c0 14 44 c0
       -5.4278 -0.5948653 1.0123571 -3.0637665
000160 da 54 38 40 2f 31 9e c0 1c ad ae be 4a 54 16 c0
       2.880179 -4.943504 -0.34116447 -2.3488946
000170 c4 7f 42 40 ab 12 94 40 2b bc 28 c0 a4 a3 32 3d
       3.0390482 4.627279 -2.6364849 0.04361309
000180 93 5e a6 3f 3a e2 58 40 a6 77 27 3f 38 39 98 41
       1.2997612 3.3888078 0.65416944 19.027939
000190 c3 c5 9c 40 97 34 16 40 41 fd 26 bf c9 6e 88 bf
       4.899141 2.3469598 -0.65230185 -1.0658809
0001a0 9e ce 47 40 26 48 2b c1 b4 9f 14 be 9a 91 1d 40
       3.121986 -10.705114 -0.14514047 2.4620118
0001b0 ea 65 e5 3b 69 13 f1 bc e8 26 1a c0 46 e2 a7 3f
       0.0070006745 -0.0294282 -2.4086246 1.3115928
0001c0 a9 3b 86 be c0 1c 01 c0 10 f4 9c c0 c7 cf 2f bf
       -0.26217392 -2.0173798 -4.904793 -0.6867642
0001d0 37 5c 54 bf fb 66 6c c1 83 fd d0 bd f8 51 98 c0
       -0.8295321 -14.775142 -0.102046035 -4.760006
0001e0 b8 7b 97 3f b4 d5 e8 be 0e b4 82 41 48 44 9e c0
       1.1834631 -0.45475543 16.337917 -4.945835
0001f0 11 02 b0 be e9 4c 3d 3d 88 2c 32 40 e1 f4 85 be
       -0.34376577 0.046215925 2.783968 -0.2616339
000200 1a da 78 c0 6c 8a 80 3f 83 d5 4f 3e d7 d9 a7 bf
       -3.8883119 1.0042243 0.20296292 -1.3113354
000210 22 ec df be 09 89 92 c1 95 4a 84 40 5f 3f e4 c0
       -0.43734843 -18.316912 4.1341043 -7.1327357
000220 84 5e a3 3e 8e 11 8a 3f 48 ac 3b 40 b3 1e 15 3f
       0.31908047 1.0786607 2.9323902 0.5824997
000230 97 37 c3 3e 37 8d b5 bf c1 d4 04 40 1e 65 a0 3e
       0.3812835 -1.418372 2.0754855 0.31327146
000240 ec e8 1a 41 db ab db 3f 1d 5c 84 3f 95 2b 73 bf
       9.681866 1.7161821 1.0340611 -0.94988376
000250 52 6c c6 c0 07 bd 4f 3f b0 73 80 bf 6b db e4 3d
       -6.2007227 0.8114781 -1.0035305 0.11174663
000260 cd fe d5 3e 1e 8e f2 40 0e da ab c0 a9 3f 6f c0
       0.4179596 7.5798483 -5.370368 -3.7382605
000270 33 9f a0 40 12 1e 00 40 63 86 a1 be b2 0d bd 40
       5.0194335 2.0018353 -0.3154784 5.907922
000280 eb 11 6a 3f 31 1b 70 c1 fa 79 44 c0 e0 fc 80 c0
       0.9143359 -15.006639 -3.0699449 -4.0308685
000290 9b 48 6e 3d ff 1d a6 c0 ea 72 50 3c 29 8c 7a 40
       0.05817471 -5.1911616 0.01272271 3.9148047
0002a0 4c 6c 69 40 1f e0 17 c1 61 1a 4f bc ad bd 12 40
       3.647235 -9.492217 -0.012640567 2.292827
0002b0 6e fd 08 40 9d 15 4b 3f b4 25 13 3f 01 cb 86 3f
       2.1404681 0.79329854 0.57479405 1.0530702
0002c0 36 95 fa 3d 64 36 00 c2 04 e6 22 3f 71 a1 e5 3f
       0.12235491 -32.053116 0.63632226 1.7939893
0002d0 75 b6 dc 3e 29 aa 5b c0 2f 14 01 41 0f 18 5e c1
       0.43107954 -3.4322608 8.067428 -13.880874
0002e0 0d 91 d4 3f cc f4 fc 40 d0 49 4f c1 2d b5 57 3f
       1.6606766 7.9048824 -12.955521 0.8426083
0002f0 9a 88 0f 3e 40 02 c8 3f a7 aa a6 bd 10 0c 53 bd
       0.14016953 1.5625687 -0.08138018 -0.051525176
000300 fa 77 a6 40 dc 04 0b 3e 08 36 09 41 7b 51 54 3f
       5.2021456 0.13576072 8.575691 0.8293683
000310 fc 9d 16 40 3a 94 96 c0 74 db 44 40 5a c1 db be
       2.3533926 -4.705594 3.0758944 -0.42920953
000320 40 41 a6 3f 7f a1 51 c0 52 10 80 3f c6 b4 31 c0
       1.2988663 -3.275482 1.000498 -2.7766585
000330 32 90 41 40 ad ad b7 3f 4e 57 5b 40 67 26 8f bf
       3.024426 1.4349877 3.4272037 -1.1183594
000340 6f 5b 9a bf 00 91 08 40 4f fc a3 bf ef 39 3b c1
       -1.2059153 2.13385 -1.2811373 -11.701644
000350 f5 58 b7 3e 43 72 2f c0 f7 8d 45 3f f3 09 7c bf
       0.35810056 -2.741349 0.77169746 -0.9845268
000360 6a 1f 42 bd b7 e0 3f 40 e6 88 0b 3e 75 16 e5 3f
       -0.04739324 2.9980905 0.13626441 1.7897478
000370 e6 ef 78 c0 8f b7 0a c0 57 b3 c8 41 75 2f 60 40
       -3.8896422 -2.1674535 25.087568 3.5028965
000380 18 75 fb c0 47 a4 ae bc b5 66 7d 40 a5 c1 be bf
       -7.8580437 -0.021318568 3.9593937 -1.4902846
000390 c2 49 28 c0 8d e3 e0 c0 c6 85 64 41 cc ad 4c c0
       -2.6295018 -7.027777 14.28266 -3.1981077
0003a0 a0 a0 64 3d 08 64 40 c1 da f3 0f be 0a af 12 c0
       0.055817246 -12.024422 -0.14057866 -2.2919335
0003b0 d5 dd 3c 3f 80 91 ff 3f fd 68 c0 40 ac c0 04 bf
       0.7377599 1.9966278 6.012816 -0.51856494
0003c0 36 88 f0 bd 7b 35 c2 3f a7 40 b4 40 6c b0 73 be
       -0.1174473 1.5172571 5.632892 -0.23797768
0003d0 21 ca 27 bf 73 0e 09 3e 4b 73 91 3e 25 31 ac 3f
       -0.655428 0.13384418 0.28408274 1.3452498
0003e0 31 40 ce 3e b0 95 ad 3e e9 aa 0b c0 9c b3 00 c0
       0.4028335 0.33903265 -2.1823065 -2.0109625
0003f0 f2 5e c5 3f 31 2e ed be 00 c7 57 c0 8c 94 1a 3f
       1.54196 -0.46324304 -3.371521 0.60382915

arith.constant5 f4 [128]
000000 51 65 de 3f 3d 10 85 bf 79 33 78 c0 b7 5e 85 bf
       1.7374669 -1.039558 -3.8781416 -1.041953
000010 26 dd 35 40 db b4 c1 40 39 a1 6a 40 24 9a 98 40
       2.8416228 6.053327 3.6660903 4.768816
000020 a9 33 c3 3f c5 61 5a 40 c6 e4 c0 40 3d 7d 98 40
       1.525014 3.4122174 6.0279264 4.765288
000030 f5 22 8c 3e 39 b2 8c 3f e9 6c 18 40 a4 51 6f 40
       0.2737042 1.0991889 2.3816473 3.739358
000040 98 39 88 40 b8 0a 4d 40 66 0f 2e 40 29 f8 78 40
       4.2570305 3.2037792 2.7196898 3.8901465
000050 37 62 8d 40 a2 ee cb 40 b7 b7 2f 40 db 2a 5e 40
       4.418239 6.37288 2.745588 3.4713657
000060 b2 34 80 40 f1 f4 69 40 3e 04 32 bf 62 0d 1c 40
       4.0064325 3.655575 -0.69537723 2.4383168
000070 e9 2d 32 c0 1b d1 26 40 1f 2c 82 40 53 2e a5 3f
       -2.7840521 2.6065128 4.067886 1.2904762
000080 90 79 c1 be 20 c6 27 40 bb 4c 92 40 8d 56 d4 3d
       -0.37788057 2.6214676 4.5718665 0.10368071
000090 d7 7c 84 40 7b 63 9f 40 8a 6b 64 40 91 2b 7e 40
       4.1402392 4.9808936 3.5690637 3.971409
0000a0 24 97 a9 40 1b 15 25 40 ba bd 43 40 97 b3 3c 40
       5.2997 2.5794132 3.058455 2.9484613
0000b0 e7 56 03 bf be 47 98 40 6a a9 41 40 15 cc 55 40
       -0.5130448 4.7587576 3.0259652 3.3405812
0000c0 50 82 a6 40 7e fd 0a 40 c2 41 93 40 2c 30 29 40
       5.2034073 2.171722 4.601777 2.6435652
0000d0 b7 2a 37 40 d0 d9 9d bf b8 c7 d7 3e 0d 64 e1 3f
       2.861982 -1.2332096 0.4214456 1.7608658
0000e0 d0 e8 75 40 aa 52 5f 40 e4 0f 25 40 07 17 33 3f
       3.8423347 3.4894204 2.579095 0.6995701
0000f0 14 52 a2 40 7b 6d ad 40 4f 3f 97 40 6b db 81 40
       5.0725193 5.4196143 4.726478 4.0580344
000100 97 c2 22 40 f2 61 a7 bf 81 3b 4c 40 91 de 9f 40
       2.5431268 -1.3076766 3.1911318 4.9959188
000110 ab 26 9c 40 59 56 29 c0 65 02 93 40 ef 98 4b 40
       4.87972 -2.6458952 4.5940423 3.1812093
000120 65 f5 81 40 ff e6 00 bf 99 67 af 40 0d 50 8f 40
       4.0612054 -0.5035247 5.481396 4.478522
000130 dc 6e 31 be ea e0 c4 c0 37 8d 82 40 fc 78 b1 40
       -0.17327446 -6.1524553 4.079738 5.5460186
000140 75 a7 ad 40 b7 bc d6 40 ad cb 9b 40 7a f7 a1 40
       5.4266915 6.7105365 4.868613 5.0614595
000150 57 af cd 40 c8 22 e6 40 17 fb a6 c0 b7 d0 65 40
       6.427654 7.1917458 -5.2181506 3.590864
000160 00 c3 bc bd 44 48 84 be 3a c0 73 40 7d 89 fc 3f
       -0.09216881 -0.25836384 3.8086076 1.9729458
000170 b4 8b 4d bf 95 74 88 40 2f e3 49 40 a7 0e 2a 40
       -0.80291295 4.264231 3.1544912 2.6571443
000180 b9 a2 8e 3f 0d 69 6c 40 6a f6 af 3f cb 69 6e 40
       1.1143409 3.6939118 1.3747075 3.725207
000190 df 9e a1 40 e5 34 71 3f ac 4c 96 40 b1 a1 80 40
       5.0506434 0.94221336 4.6968594 4.0197377
0001a0 b8 1d 9a 40 47 58 79 40 19 35 c6 40 53 c8 fc 3f
       4.816128 3.896013 6.1939816 1.9748634
0001b0 d8 e1 3b 40 9c ee 12 c0 37 6c 71 40 22 19 52 40
       2.9356594 -2.2958136 3.77223 3.282784
0001c0 a3 21 9c c0 3c 5e 5a 3f 3c 6c 00 c0 7f 0c 68 40
       -4.879106 0.8530004 -2.006606 3.6257627
0001d0 6b 60 a7 40 63 9d c1 40 7e 41 9e 40 b6 2c d8 be
       5.23052 6.0504622 4.9454947 -0.42221612
0001e0 1d 78 4f 40 42 77 96 40 14 1f 8a 3f 90 23 95 c0
       3.2417061 4.702058 1.0790734 -4.660591
0001f0 57 7d 8f 40 54 ae 8e 3e da 91 8f c0 e8 26 50 40
       4.4840503 0.27867377 -4.486554 3.2523746

arith.constant6 f4 [256]
000000 f8 e1 44 be 6f a2 f1 3d 60 63 2d be 11 2c 9c bd
       -0.19226825 0.1179856 -0.1693244 -0.076255925
000010 d3 f4 87 be a8 ea b0 bc 15 1c 45 be 0f 4a 00 bd
       -0.26553974 -0.021596268 -0.19248994 -0.031320628
000020 42 f9 91 3d 73 4f 95 be e1 22 cd bd 2a f6 bb bd
       0.0712762 -0.29162177 -0.10016418 -0.091778114
000030 90 b8 53 be 6c 0f 5f be 80 8e 18 be e3 06 b9 be
       -0.20675874 -0.21783227 -0.1489811 -0.36138067
000040 1e 0c 82 bd bb 0e 70 be 82 ae ec bd e9 23 44 be
       -0.063499674 -0.23443119 -0.11556722 -0.19154324
000050 b0 3f 85 be 58 68 bf 3d 8d 52 59 be 83 12 08 bd
       -0.26025152 0.09346074 -0.21222897 -0.03322078
000060 10 50 fb 3d 29 87 bc be 62 37 86 be d1 36 17 be
       0.1227113 -0.3682187 -0.2621413 -0.14767005
000070 5b 1f d0 bd c0 da d0 bd ea ac ad bd 1b b8 dc bd
       -0.101622306 -0.10197973 -0.08480246 -0.10777303
000080 7c 1e 1e be b7 a1 2d be 81 c6 1e be 56 ff 10 bd
       -0.15441316 -0.1695622 -0.1550541 -0.035399757
000090 21 e1 12 be 98 37 6e be cd 6d c4 3d e1 b3 db be
       -0.14343692 -0.23263395 0.09591255 -0.42910674
0000a0 28 e2 2c be a7 7d 13 be 0e 57 72 be 03 7c 62 be
       -0.16883147 -0.14403401 -0.23666021 -0.22117619
0000b0 dc e1 84 be 3f a2 d1 3c 9a a2 40 be 9a 9b 60 be
       -0.25953567 0.02559006 -0.18812028 -0.21934357
0000c0 b2 64 bd 3c d2 64 0e be b4 d4 91 be ab 14 ea bb
       0.023119304 -0.13905647 -0.28482592 -0.007143577
0000d0 1f f6 ad be d5 1f ba 3d a5 ea 04 be 73 cd 22 be
       -0.33976838 0.09088103 -0.12980135 -0.15898685
0000e0 39 cc a2 be 83 fb 80 be 33 dd 88 bd b6 35 2e 3d
       -0.31796435 -0.25191888 -0.066828154 0.04253169
0000f0 8b 9a 81 bd a1 33 9c be 8e 99 84 be 30 ad 97 be
       -0.06328305 -0.3050814 -0.25898403 -0.2962432
000100 9d 76 96 be 1c bb 5f be 22 86 08 3d 7e 6b fb bd
       -0.2938737 -0.2184872 0.033331044 -0.12276362
000110 54 a9 d0 be fe 22 a4 be 06 ef 6d be 49 e7 97 be
       -0.40754187 -0.32057947 -0.23235711 -0.29668644
000120 78 dd 89 3d b0 38 6d be 10 c9 54 be c4 e8 01 be
       0.06731695 -0.23166156 -0.20779824 -0.1268645
000130 09 c9 a9 be 7b 55 a4 be fd 47 ae bb 59 67 71 be
       -0.3316119 -0.32096466 -0.0053186403 -0.2357458
000140 cf d7 73 3b 8c ec 82 bd d5 ed 5c be 10 8b 91 be
       0.003720749 -0.06392774 -0.215751 -0.2842641
000150 8f 3a 9b bd e2 80 d0 bd ac 81 80 be 4b 78 1f be
       -0.075795285 -0.101808324 -0.25098932 -0.15573232
000160 7f 6a ea be b5 89 82 be 6c 4c 62 bc 41 cf 67 be
       -0.45784375 -0.25495687 -0.013812166 -0.22637655
000170 12 89 70 be dc 3a 7f be fc 57 85 be 63 0b 56 be
       -0.23489788 -0.24924797 -0.2604369 -0.20902781
000180 ab 17 53 3d a7 c1 44 be 3f 69 29 be cf 52 ce be
       0.051536243 -0.19214498 -0.16544054 -0.40297553
000190 fd 6b 87 be 6d d7 8b be aa fe a8 be 01 49 07 3e
       -0.26449576 -0.27312794 -0.33006793 0.13211443
0001a0 82 ca a6 be 44 07 96 be 27 62 61 bd 7d bb 16 be
       -0.32576376 -0.29302418 -0.055025246 -0.14719959
0001b0 e8 be 43 be e3 8f 83 3d d9 28 97 be c8 d7 9c be
       -0.19115794 0.064239286 -0.29523352 -0.30633378
0001c0 67 29 21 be e3 38 5d be b4 e0 5a be 8e 87 9d be
       -0.1573845 -0.21603732 -0.2137478 -0.30767483
0001d0 0e 7e 96 3d b0 9c 91 be e2 74 18 3c 9a 08 22 3e
       0.07348262 -0.28439856 0.009305211 0.15823594
0001e0 42 26 8d be 5a d7 48 be 93 ab c1 be f7 28 b3 be
       -0.2756825 -0.196134 -0.37826213 -0.3499219
0001f0 87 51 4b be 49 a5 ba bd bb 56 2c be b8 80 46 be
       -0.19855319 -0.09113557 -0.1682996 -0.1938504
000200 35 38 8f be c1 99 11 be 8f 1f ac be 5b dc 9f be
       -0.2797257 -0.14218809 -0.33617827 -0.31222805
000210 c6 74 ea bb c6 01 8b be 36 f2 86 be 73 69 59 be
       -0.0071550338 -0.2714979 -0.26356667 -0.21231632
000220 8d 15 8e be 1e db 12 bd e2 85 46 be a2 98 e4 bd
       -0.27750817 -0.035853498 -0.1938701 -0.11161925
000230 a3 c7 12 be cc ae 7f be a8 bb a0 be 5e 59 f4 bd
       -0.14333968 -0.24969023 -0.3139317 -0.11931108
000240 5e f2 7b be f3 12 67 be 83 44 c5 bd 05 86 28 be
       -0.24604174 -0.22565822 -0.09632208 -0.16457374
000250 c9 f1 25 bd e6 87 a4 be ac 4c 90 be 80 b0 9c bd
       -0.040513787 -0.32134932 -0.28183496 -0.07650852
000260 02 d9 0f be 0e d2 70 be 61 e3 59 3e fa 24 be be
       -0.14047626 -0.2351763 0.21278144 -0.37137586
000270 af 90 67 be 92 67 82 be 00 15 85 be a1 51 37 be
       -0.22613786 -0.25469643 -0.25992584 -0.17902233
000280 fb ce c7 bd c0 1e e0 be bd 0a 1f be cc b5 da bb
       -0.09756275 -0.4377346 -0.1553144 -0.006674504
000290 9c 19 c9 bd 20 dd 6b be 05 1c dc bc b9 db aa be
       -0.09819338 -0.23033571 -0.02686883 -0.3337076
0002a0 00 19 70 be 5c 5d 84 be 61 b5 21 bd 41 13 e6 bd
       -0.23447037 -0.25852478 -0.039479617 -0.11234141
0002b0 1a 53 bb be da 51 94 bd fa 2b dd bd b8 26 57 be
       -0.3658684 -0.072421744 -0.107994035 -0.21010864
0002c0 89 ab f0 bc 7d 1d a2 be 54 6f 38 be 3f a9 81 be
       -0.02937867 -0.31663123 -0.18011218 -0.25324437
0002d0 07 42 b0 3c 4b 8c 6f be 37 2f a4 be 12 01 4f be
       0.02151586 -0.23393361 -0.32067272 -0.20215252
0002e0 80 fd c1 bd 33 9e 89 be c0 e2 23 be 6e 60 91 be
       -0.094721794 -0.2687851 -0.16004467 -0.28393883
0002f0 5f c6 18 be 9e e2 0c be dd 2b 95 bd 5e 13 16 3c
       -0.14919423 -0.13758323 -0.07283757 0.009159891
000300 5b e7 0d be 25 97 e7 bd da 04 b9 be 2b 03 e6 bd
       -0.13857786 -0.113081254 -0.36136514 -0.11231073
000310 67 56 47 be 36 52 af be 5a a1 91 be 7b a0 4f be
       -0.19466554 -0.3424241 -0.28443414 -0.20276062
000320 d6 86 51 be 86 9d 08 3e 25 cd b4 bc 48 1e 86 be
       -0.20461592 0.1334134 -0.022070477 -0.26194978
000330 86 db 74 be 0b 01 8d be 2c d0 83 be 8c ff 37 be
       -0.23911867 -0.27539858 -0.2574476 -0.17968577
000340 c0 29 26 be ed 55 0a be d3 b0 84 be a8 9f b5 be
       -0.16226864 -0.1350934 -0.25916156 -0.3547337
000350 75 7d 43 3d a2 fb 1f be 5a 47 9c be 3a 1c 98 be
       0.047727067 -0.15623334 -0.30523187 -0.29709035
000360 3d 8c 96 bd 8e 6e ce bd 7b c1 df bb b0 43 90 be
       -0.07350967 -0.100796804 -0.0068284846 -0.2817664
000370 29 2b a9 be 58 e0 b7 bd 0c 68 b0 be 92 8e b9 be
       -0.3304074 -0.08978337 -0.3445438 -0.36241585
000380 86 f7 b8 be 17 85 25 bd 29 39 6b be 99 6a c0 bd
       -0.36126345 -0.040410127 -0.22971024 -0.09395332
000390 87 1e 4d be 40 c0 85 be 44 8d c7 be 01 84 ab bc
       -0.20031177 -0.26123238 -0.38974965 -0.020936968
0003a0 7e 22 7f bd 7b 7c f3 bd 29 93 ec bd df 11 3b 3c
       -0.062288754 -0.11888977 -0.11551506 0.011417835
0003b0 55 98 42 be b1 22 2c be ac 34 51 be f9 a3 c7 3d
       -0.19003423 -0.16810109 -0.20430249 0.09748072
0003c0 88 85 f8 bd d8 d2 1c be 94 9f 01 be 3b 48 09 3e
       -0.12134844 -0.15314806 -0.1265853 0.1340646
0003d0 48 55 8d be e3 0f 3f be 7a 2d 47 be 67 96 25 be
       -0.27604127 -0.18658404 -0.19450942 -0.16170655
0003e0 e5 cc fa bc 94 0c 05 be 0b 2e 54 bd 9b 9b 14 be
       -0.03061528 -0.1299308 -0.051801722 -0.14512484
0003f0 89 fb 8c bd 46 e3 2e be d2 b0 dd bd cc 50 30 be
       -0.06883914 -0.17078885 -0.108247414 -0.17218322

sequential_1/dense_1/MatMul f4 [256, 5]
000000 ad ab d2 be f3 af a7 bc d6 08 b4 3e 93 d2 02 3e
       -0.41146603 -0.020469641 0.3516299 0.1277564
000010 19 27 0f be 1b 6b 92 3e c8 a5 5c bd 50 85 bb 3e
       -0.13979758 0.2859734 -0.05386904 0.36625147
000020 3a 06 96 be 94 51 2c 3e 7b 33 0f 3e 23 46 ae 3d
       -0.29301625 0.16827995 0.13984482 0.08509471
000030 ac eb 05 bf 56 f8 89 3e a9 2b 96 be b0 2e a7 be
       -0.5231273 0.26947278 -0.29330185 -0.32652807
000040 c5 0e ae 3e 77 0b 43 be 4b 4d 95 3d e7 1b 91 be
       0.33995643 -0.19047342 0.07290133 -0.283416
000050 15 b7 a1 bd 45 13 1f 3d 2d d3 c3 be 86 18 bc 3e
       -0.07896248 0.038836736 -0.38247052 0.3673746
000060 76 7f 60 be 31 01 ac be b7 92 0d 3f 32 4f 96 bd
       -0.21923622 -0.3359466 0.55301994 -0.07339324
000070 9a ff b1 3d dd 55 0f be 70 9c 1a 3e c3 6e ce 3d
       0.0869133 -0.13997598 0.15098739 0.1007972
000080 0f 97 95 be 6f ab d6 be 56 7d bc bb 8d 75 80 be
       -0.2921681 -0.41927668 -0.005752246 -0.25089684
000090 db 02 ed 3e 90 1f 5e be 6d 87 85 3e bd 2e 9b be
       0.4629124 -0.21691728 0.26079884 -0.30309096
0000a0 6d 59 d6 3e 5f ae cb bd ad b0 b2 3e ac 81 20 be
       0.418651 -0.09945368 0.34900418 -0.15674466
0000b0 bb 48 16 3e 98 a2 8d 3e 29 8a 7e be 4d 3d 7d bd
       0.14676182 0.27663112 -0.24857391 -0.06182604
0000c0 3f f9 95 3e 93 ea 78 be 2f f8 56 3e cc 99 8e bd
       0.29291722 -0.24308233 0.20993112 -0.06962928
0000d0 68 4f d6 ba 40 61 39 be 88 6c fc be b1 40 9a be
       -0.0016350569 -0.18103504 -0.49301553 -0.3012748
0000e0 06 08 e3 3e 8c ae b7 be 7c 94 98 bc a0 30 26 be
       0.4434206 -0.35875356 -0.01862549 -0.16229486
0000f0 ce 53 c4 be d1 fe fc 3d a3 84 cc bd d8 96 de 3d
       -0.38345188 0.1235329 -0.09986236 0.10868615
000100 10 4f ca bc 4c 0f 21 be b3 78 16 3e 6e e1 84 3d
       -0.024695903 -0.15728492 0.1469448 0.0648831
000110 c2 b6 64 bf ea cf 8b be ef 52 30 3e 34 17 ae 3e
       -0.89341366 -0.27307063 0.17219137 0.34002078
000120 db b8 fc 3d 4a bf d8 3c ad 83 0e bf e4 a1 67 be
       0.12339946 0.026458401 -0.5566967 -0.2262035
000130 e9 91 6f 3e a9 25 2a be 27 0c 03 3d 41 87 9c 3e
       0.23395504 -0.16615929 0.03199401 0.3057194
000140 e8 dd de be c3 0c 93 be 81 d9 3a bd f6 b0 87 be
       -0.43528676 -0.28720674 -0.045617584 -0.26502198
000150 f0 69 4c be b2 f0 71 3d ac 79 a5 bd 1b 38 9f 3d
       -0.19962287 0.059067436 -0.08079848 0.07774373
000160 30 6f fc 3d 0f ad ed bc e3 35 88 be 84 fb 8a 3e
       0.12325895 -0.029013185 -0.26603612 0.27145016
000170 4a c8 28 be a8 35 6b be ee 84 95 3e f1 02 89 bc
       -0.16482654 -0.22969687 0.2920298 -0.016725035
000180 ee 0c d5 bb d1 83 e4 be 58 68 fd be 63 45 ae bd
       -0.0065017855 -0.44631818 -0.4949367 -0.08509328
000190 1f 47 12 bf 91 33 42 3c 61 27 8d bc c8 b8 84 3d
       -0.5713977 0.011853115 -0.017230691 0.06480557
0001a0 58 2e 30 3d dd e8 9d 3e 89 a6 fb 3a 0f 6a 0b bf
       0.043012947 0.30841723 0.0019199412 -0.5445871
0001b0 98 42 6d be e0 cc 58 3e ad d3 b3 be 30 3c f0 3c
       -0.23169935 0.21171904 -0.35122433 0.029325575
0001c0 00 c6 94 3e 1f 20 aa be 97 9f 96 bc 06 47 97 be
       0.29057312 -0.3322763 -0.018386645 -0.29546374
0001d0 ca 34 81 bd 97 80 1e 3f 88 3b 14 3d a0 3c 3a be
       -0.06308897 0.6191496 0.036189586 -0.18187189
0001e0 2f ce 81 bc 98 b2 3f 3e 71 60 14 3d bf 41 90 be
       -0.015845386 0.18720472 0.036224786 -0.2817516
0001f0 bc d4 cc be d3 b0 d0 bc d3 3d 6a 3e 42 fd b3 3e
       -0.40006053 -0.025474941 0.22875147 0.35154158
000200 8a e7 4e 3e 4f 2c d7 bc 3d 55 7d be 62 ea 3e bc
       0.20205513 -0.026266245 -0.24739547 -0.011652561
000210 49 78 82 3d 79 2c 66 be 0a 81 f4 3e 9a 26 3d 3c
       0.06370599 -0.22477902 0.477547 0.011544848
000220 66 32 bd bc 7d 65 55 bc 3e 03 98 bb 60 ce 9b 3d
       -0.02309532 -0.013024685 -0.0046390584 0.07607722
000230 44 fb 01 be 9e 1f 25 bc d5 0a 53 be e6 b9 20 bf
       -0.12693506 -0.010078339 -0.20609601 -0.6278366
000240 63 b9 9d 3e ed 30 2a be 6d 7c af bd bc 0a 09 3e
       0.308055 -0.16620226 -0.08568654 0.13383001
000250 46 04 a6 be ee ed e8 3e e9 49 8c be 59 43 4d 3e
       -0.32425135 0.45494026 -0.2740014 0.20045222
000260 e7 fb a8 be 28 f2 00 bf 73 44 62 be 00 4d af 3e
       -0.33004686 -0.503695 -0.22096424 0.34238434
000270 fb 72 79 3d c0 9f f6 bd 30 75 18 bf 34 e3 91 3e
       0.06090067 -0.12042189 -0.59553814 0.28493655
000280 d0 c0 ba 3e 2c b4 68 bb 54 ea e7 bd 52 41 77 3e
       0.3647523 -0.0035507781 -0.113239914 0.24146011
000290 68 d9 c6 be 98 80 b3 3d 27 a6 31 be bf 5f 08 3f
       -0.38837743 0.08764762 -0.17348538 0.53271097
0002a0 1d c6 cb 3d b7 b3 d4 3d 96 1f b2 3d 05 2c 91 3d
       0.099498965 0.103858404 0.08697431 0.07088474
0002b0 9a 22 39 3e 4d 38 11 bf 46 61 c1 3e ec 7c 79 be
       0.18079606 -0.56726533 0.37769526 -0.2436406
0002c0 e6 1f 21 be 0b 24 03 3f 71 9c 59 3e 95 4e 35 3d
       -0.15734825 0.5122687 0.21251084 0.044264395
0002d0 f0 a7 93 3e e0 48 d0 bd 47 73 20 3e e1 08 62 be
       0.28839064 -0.1017015 0.15668975 -0.220737
0002e0 32 86 c1 3e 57 e4 63 be 2e ad 7c 3e 74 b9 88 3e
       0.37797695 -0.22255073 0.24675438 0.2670399
0002f0 90 d5 1e 3e be 85 eb be 1f 69 0e 3d 1f b9 1f 3c
       0.15511155 -0.46000475 0.03476822 0.009748726
000300 b4 71 a3 3d 21 ef 35 bf 13 19 e7 be 5f da cd be
       0.079806715 -0.71068007 -0.45136318 -0.40205666
000310 93 62 ab bd 63 ca 5d bd e2 75 5b bd f6 af 77 3e
       -0.08368411 -0.05414809 -0.05357922 0.24188218
000320 3b 45 a8 3e 4e 9b 86 3c ec a3 49 be 6b ae 0f 3e
       0.3286532 0.016431477 -0.19691437 0.14031379
000330 1d 71 f9 be c3 44 24 3c 2c 58 c1 3c a0 d1 b4 bd
       -0.4871911 0.01002616 0.023601614 -0.08829045
000340 0f 57 aa 3d 8f e4 87 bd 54 27 95 3c 37 0b 6e be
       0.08317386 -0.06635391 0.01820723 -0.23246466
000350 f5 f9 d5 3d 1e d8 e0 3e 6b 5c 83 bd 69 5d a5 3d
       0.10448066 0.43914884 -0.06414112 0.08074457
000360 5c 22 71 be 01 36 c9 3d d0 ae 65 3e de 42 c1 3e
       -0.23548263 0.098247536 0.22429967 0.37746328
000370 d8 70 c1 3e d1 87 61 be 7d ce 65 3d d4 e8 8d 3e
       0.37781405 -0.22024466 0.056105126 0.27716696
000380 e1 30 1b bc 03 60 4c 3e 4c ba d7 3e b1 15 d8 be
       -0.009472103 0.199585 0.4213432 -0.4220405
000390 a6 fe 02 3e 9b c7 d7 3d c1 02 61 3e ad 47 dd 3c
       0.12792453 0.105361186 0.21973707 0.027011717
0003a0 53 d1 d5 3e 99 be 3e be dc 6e 6c be 70 20 59 be
       0.41761264 -0.18627395 -0.23089164 -0.2120378
0003b0 2d f3 09 bf dc 95 1d be 49 95 20 3e 07 92 a2 be
       -0.5388668 -0.15389198 0.15681948 -0.31752035
0003c0 9a da 39 bd 68 16 9c 3e a8 a7 bb be 65 29 96 3d
       -0.04537449 0.30485845 -0.3665135 0.07332114
0003d0 b0 f2 62 3e f0 9e ed be 33 97 0c 3e f9 22 76 3e
       0.2216289 -0.46410322 0.13729553 0.24036779
0003e0 51 69 4f be 9c 2a 3a be 99 a8 49 3e 11 7e 5b 3c
       -0.20255019 -0.18180317 0.19693221 0.013396756
0003f0 31 c7 45 be 08 fc 46 bf cc 3d 6d bc 67 51 a3 3e
       -0.19314267 -0.7772832 -0.014480066 0.31898043
